…
_________________________________________________________________
Layer (type)                 Output Shape              Param #   
=================================================================
input_4 (InputLayer)         [(None, 160, 160, 3)]     0         
_________________________________________________________________
tf_op_layer_strided_slice_1  [(None, 160, 160, 3)]     0         
_________________________________________________________________
tf_op_layer_BiasAdd_1 (Tenso [(None, 160, 160, 3)]     0         
_________________________________________________________________
sequential_1 (Sequential)    (None, 160, 160, 3)       0         
_________________________________________________________________
resnet50 (Functional)        (None, 5, 5, 2048)        23587712  
_________________________________________________________________
global_average_pooling2d_1 ( (None, 2048)              0         
_________________________________________________________________
dense_4 (Dense)              (None, 512)               1049088   
_________________________________________________________________
dense_5 (Dense)              (None, 256)               131328    
_________________________________________________________________
dense_6 (Dense)              (None, 32)                8224      
_________________________________________________________________
dense_7 (Dense)              (None, 1)                 33        
=================================================================
Total params: 24,776,385
Trainable params: 1,241,793
Non-trainable params: 23,534,592
_________________________________________________________________
1/1 [==============================] - 0s 2ms/step - loss: 0.7310 - accuracy: 0.6250
initial loss: 0.73
initial accuracy: 0.62
Epoch 1/14
163/163 [==============================] - 55s 340ms/step - loss: 0.2299 - accuracy: 0.8988 - val_loss: 1.6299 - val_accuracy: 0.6875
…
