…
_________________________________________________________________
Layer (type)                 Output Shape              Param #   
=================================================================
input_24 (InputLayer)        [(None, 160, 160, 3)]     0         
_________________________________________________________________
tf_op_layer_strided_slice_11 [(None, 160, 160, 3)]     0         
_________________________________________________________________
tf_op_layer_BiasAdd_11 (Tens [(None, 160, 160, 3)]     0         
_________________________________________________________________
sequential_11 (Sequential)   (None, 160, 160, 3)       0         
_________________________________________________________________
resnet50 (Functional)        (None, 5, 5, 2048)        23587712  
_________________________________________________________________
global_average_pooling2d_11  (None, 2048)              0         
_________________________________________________________________
dense_44 (Dense)             (None, 1024)              2098176   
_________________________________________________________________
dense_45 (Dense)             (None, 256)               262400    
_________________________________________________________________
dense_46 (Dense)             (None, 32)                8224      
_________________________________________________________________
dense_47 (Dense)             (None, 1)                 33        
=================================================================
Total params: 25,956,545
Trainable params: 2,421,953
Non-trainable params: 23,534,592
_________________________________________________________________
1/1 [==============================] - 0s 2ms/step - loss: 0.9634 - accuracy: 0.5000
initial loss: 0.96
initial accuracy: 0.50
Epoch 1/5
163/163 [==============================] - 84s 518ms/step - loss: 0.6225 - accuracy: 0.5243 - val_loss: 0.9823 - val_accuracy: 0.5000
…
