…
_________________________________________________________________
Layer (type)                 Output Shape              Param #   
=================================================================
input_14 (InputLayer)        [(None, 160, 160, 3)]     0         
_________________________________________________________________
tf_op_layer_strided_slice_6  [(None, 160, 160, 3)]     0         
_________________________________________________________________
tf_op_layer_BiasAdd_6 (Tenso [(None, 160, 160, 3)]     0         
_________________________________________________________________
sequential_6 (Sequential)    (None, 160, 160, 3)       0         
_________________________________________________________________
resnet50 (Functional)        (None, 5, 5, 2048)        23587712  
_________________________________________________________________
global_average_pooling2d_6 ( (None, 2048)              0         
_________________________________________________________________
dense_24 (Dense)             (None, 1024)              2098176   
_________________________________________________________________
dense_25 (Dense)             (None, 256)               262400    
_________________________________________________________________
dense_26 (Dense)             (None, 32)                8224      
_________________________________________________________________
dense_27 (Dense)             (None, 1)                 33        
=================================================================
Total params: 25,956,545
Trainable params: 2,421,953
Non-trainable params: 23,534,592
_________________________________________________________________
1/1 [==============================] - 0s 3ms/step - loss: 0.8329 - accuracy: 0.4375
initial loss: 0.83
initial accuracy: 0.44
Epoch 1/5
163/163 [==============================] - 88s 537ms/step - loss: 0.6587 - accuracy: 0.3792 - val_loss: 0.8704 - val_accuracy: 0.5000
…
