…
_________________________________________________________________
Layer (type)                 Output Shape              Param #   
=================================================================
input_6 (InputLayer)         [(None, 160, 160, 3)]     0         
_________________________________________________________________
tf_op_layer_strided_slice_2  [(None, 160, 160, 3)]     0         
_________________________________________________________________
tf_op_layer_BiasAdd_2 (Tenso [(None, 160, 160, 3)]     0         
_________________________________________________________________
sequential_2 (Sequential)    (None, 160, 160, 3)       0         
_________________________________________________________________
resnet50 (Functional)        (None, 5, 5, 2048)        23587712  
_________________________________________________________________
global_average_pooling2d_2 ( (None, 2048)              0         
_________________________________________________________________
dense_8 (Dense)              (None, 1024)              2098176   
_________________________________________________________________
dense_9 (Dense)              (None, 256)               262400    
_________________________________________________________________
dense_10 (Dense)             (None, 32)                8224      
_________________________________________________________________
dense_11 (Dense)             (None, 1)                 33        
=================================================================
Total params: 25,956,545
Trainable params: 2,421,953
Non-trainable params: 23,534,592
_________________________________________________________________
1/1 [==============================] - 0s 2ms/step - loss: 0.7661 - accuracy: 0.5000
initial loss: 0.77
initial accuracy: 0.50
Epoch 1/10
163/163 [==============================] - 55s 338ms/step - loss: 0.7068 - accuracy: 0.2922 - val_loss: 0.7708 - val_accuracy: 0.5625
…
