…
_________________________________________________________________
Layer (type)                 Output Shape              Param #   
=================================================================
input_10 (InputLayer)        [(None, 160, 160, 3)]     0         
_________________________________________________________________
tf_op_layer_strided_slice_4  [(None, 160, 160, 3)]     0         
_________________________________________________________________
tf_op_layer_BiasAdd_4 (Tenso [(None, 160, 160, 3)]     0         
_________________________________________________________________
sequential_4 (Sequential)    (None, 160, 160, 3)       0         
_________________________________________________________________
resnet50 (Functional)        (None, 5, 5, 2048)        23587712  
_________________________________________________________________
global_average_pooling2d_4 ( (None, 2048)              0         
_________________________________________________________________
dense_16 (Dense)             (None, 1024)              2098176   
_________________________________________________________________
dense_17 (Dense)             (None, 256)               262400    
_________________________________________________________________
dense_18 (Dense)             (None, 32)                8224      
_________________________________________________________________
dense_19 (Dense)             (None, 1)                 33        
=================================================================
Total params: 25,956,545
Trainable params: 2,421,953
Non-trainable params: 23,534,592
_________________________________________________________________
1/1 [==============================] - 0s 3ms/step - loss: 0.7331 - accuracy: 0.5000
initial loss: 0.73
initial accuracy: 0.50
Epoch 1/15
163/163 [==============================] - 92s 564ms/step - loss: 0.2380 - accuracy: 0.8928 - val_loss: 0.9213 - val_accuracy: 0.7500
…
