…
_________________________________________________________________
Layer (type)                 Output Shape              Param #   
=================================================================
input_4 (InputLayer)         [(None, 160, 160, 3)]     0         
_________________________________________________________________
tf_op_layer_strided_slice_1  [(None, 160, 160, 3)]     0         
_________________________________________________________________
tf_op_layer_BiasAdd_1 (Tenso [(None, 160, 160, 3)]     0         
_________________________________________________________________
sequential_1 (Sequential)    (None, 160, 160, 3)       0         
_________________________________________________________________
resnet50 (Functional)        (None, 5, 5, 2048)        23587712  
_________________________________________________________________
global_average_pooling2d_1 ( (None, 2048)              0         
_________________________________________________________________
dense_4 (Dense)              (None, 1024)              2098176   
_________________________________________________________________
dense_5 (Dense)              (None, 512)               524800    
_________________________________________________________________
dense_6 (Dense)              (None, 64)                32832     
_________________________________________________________________
dense_7 (Dense)              (None, 1)                 65        
=================================================================
Total params: 26,243,585
Trainable params: 2,708,993
Non-trainable params: 23,534,592
_________________________________________________________________
1/1 [==============================] - 0s 2ms/step - loss: 0.6918 - accuracy: 0.5000
initial loss: 0.69
initial accuracy: 0.50
Epoch 1/14
163/163 [==============================] - 57s 348ms/step - loss: 0.2314 - accuracy: 0.8967 - val_loss: 0.9293 - val_accuracy: 0.7500
…
