…
_________________________________________________________________
Layer (type)                 Output Shape              Param #   
=================================================================
input_34 (InputLayer)        [(None, 160, 160, 3)]     0         
_________________________________________________________________
tf_op_layer_strided_slice_16 [(None, 160, 160, 3)]     0         
_________________________________________________________________
tf_op_layer_BiasAdd_16 (Tens [(None, 160, 160, 3)]     0         
_________________________________________________________________
sequential_16 (Sequential)   (None, 160, 160, 3)       0         
_________________________________________________________________
resnet50 (Functional)        (None, 5, 5, 2048)        23587712  
_________________________________________________________________
global_average_pooling2d_16  (None, 2048)              0         
_________________________________________________________________
dense_64 (Dense)             (None, 1024)              2098176   
_________________________________________________________________
dense_65 (Dense)             (None, 256)               262400    
_________________________________________________________________
dense_66 (Dense)             (None, 32)                8224      
_________________________________________________________________
dense_67 (Dense)             (None, 1)                 33        
=================================================================
Total params: 25,956,545
Trainable params: 2,421,953
Non-trainable params: 23,534,592
_________________________________________________________________
1/1 [==============================] - 0s 3ms/step - loss: 1.3417 - accuracy: 0.5000
initial loss: 1.34
initial accuracy: 0.50
Epoch 1/10
163/163 [==============================] - 86s 530ms/step - loss: 0.2327 - accuracy: 0.8980 - val_loss: 0.8835 - val_accuracy: 0.7500
…
