…
_________________________________________________________________
Layer (type)                 Output Shape              Param #   
=================================================================
input_6 (InputLayer)         [(None, 160, 160, 3)]     0         
_________________________________________________________________
tf_op_layer_strided_slice_2  [(None, 160, 160, 3)]     0         
_________________________________________________________________
tf_op_layer_BiasAdd_2 (Tenso [(None, 160, 160, 3)]     0         
_________________________________________________________________
sequential_2 (Sequential)    (None, 160, 160, 3)       0         
_________________________________________________________________
resnet50 (Functional)        (None, 5, 5, 2048)        23587712  
_________________________________________________________________
global_average_pooling2d_2 ( (None, 2048)              0         
_________________________________________________________________
dense_8 (Dense)              (None, 512)               1049088   
_________________________________________________________________
dense_9 (Dense)              (None, 256)               131328    
_________________________________________________________________
dense_10 (Dense)             (None, 128)               32896     
_________________________________________________________________
dense_11 (Dense)             (None, 1)                 129       
=================================================================
Total params: 24,801,153
Trainable params: 1,266,561
Non-trainable params: 23,534,592
_________________________________________________________________
1/1 [==============================] - 0s 2ms/step - loss: 0.7239 - accuracy: 0.5000
initial loss: 0.72
initial accuracy: 0.50
Epoch 1/14
163/163 [==============================] - 57s 347ms/step - loss: 0.2343 - accuracy: 0.8997 - val_loss: 0.9289 - val_accuracy: 0.7500
…
