…
_________________________________________________________________
Layer (type)                 Output Shape              Param #   
=================================================================
input_2 (InputLayer)         [(None, 160, 160, 3)]     0         
________________________________________________________________
tf_op_layer_strided_slice (T [(None, 160, 160, 3)]     0         
_________________________________________________________________
tf_op_layer_BiasAdd (TensorF [(None, 160, 160, 3)]     0         
_________________________________________________________________
sequential (Sequential)      (None, 160, 160, 3)       0         
_________________________________________________________________
resnet50 (Functional)        (None, 5, 5, 2048)        23587712  
_________________________________________________________________
global_average_pooling2d (Gl (None, 2048)              0         
_________________________________________________________________
dense (Dense)                (None, 1024)              2098176   
_________________________________________________________________
dense_1 (Dense)              (None, 512)               524800    
_________________________________________________________________
dense_2 (Dense)              (None, 256)               131328    
_________________________________________________________________
dense_3 (Dense)              (None, 1)                 257       
=================================================================
Total params: 26,342,273
Trainable params: 2,807,681
Non-trainable params: 23,534,592

_________________________________________________________________

1/1 [==============================] - 0s 3ms/step - loss: 0.7899 - accuracy: 0.3125

initial loss: 0.79

initial accuracy: 0.31

Epoch 1/14

163/163 [==============================] - 58s 358ms/step - loss: 0.2211 - accuracy: 0.8992 - val_loss: 0.3824 - val_accuracy: 0.8750
…
