…
_________________________________________________________________
Layer (type)                 Output Shape              Param #   
=================================================================
input_2 (InputLayer)         [(None, 160, 160, 3)]     0         
_________________________________________________________________
tf_op_layer_strided_slice (T [(None, 160, 160, 3)]     0         
_________________________________________________________________
tf_op_layer_BiasAdd (TensorF [(None, 160, 160, 3)]     0         
_________________________________________________________________
sequential (Sequential)      (None, 160, 160, 3)       0         
_________________________________________________________________
resnet50 (Functional)        (None, 5, 5, 2048)        23587712  
_________________________________________________________________
global_average_pooling2d (Gl (None, 2048)              0         
_________________________________________________________________
dense (Dense)                (None, 1024)              2098176   
_________________________________________________________________
dense_1 (Dense)              (None, 256)               262400    
_________________________________________________________________
dense_2 (Dense)              (None, 32)                8224      
_________________________________________________________________
dense_3 (Dense)              (None, 1)                 33        
=================================================================
Total params: 25,956,545
Trainable params: 2,421,953
Non-trainable params: 23,534,592
_________________________________________________________________
1/1 [==============================] - 0s 6ms/step - loss: 0.8154 - accuracy: 0.5000
initial loss: 0.82
initial accuracy: 0.50
Epoch 1/50
163/163 [==============================] - 1379s 8s/step - loss: 0.2137 - accuracy: 0.9043 - val_loss: 0.5211 - val_accuracy: 0.8125
…
