…
_________________________________________________________________
Layer (type)                 Output Shape              Param #   
=================================================================
input_32 (InputLayer)        [(None, 160, 160, 3)]     0         
_________________________________________________________________
tf_op_layer_strided_slice_15 [(None, 160, 160, 3)]     0         
_________________________________________________________________
tf_op_layer_BiasAdd_15 (Tens [(None, 160, 160, 3)]     0         
_________________________________________________________________
sequential_15 (Sequential)   (None, 160, 160, 3)       0         
_________________________________________________________________
resnet50 (Functional)        (None, 5, 5, 2048)        23587712  
_________________________________________________________________
global_average_pooling2d_15  (None, 2048)              0         
_________________________________________________________________
dense_60 (Dense)             (None, 1024)              2098176   
_________________________________________________________________
dense_61 (Dense)             (None, 256)               262400    
_________________________________________________________________
dense_62 (Dense)             (None, 32)                8224      
_________________________________________________________________
dense_63 (Dense)             (None, 1)                 33        
=================================================================
Total params: 25,956,545
Trainable params: 2,421,953
Non-trainable params: 23,534,592
_________________________________________________________________
1/1 [==============================] - 0s 2ms/step - loss: 0.8125 - accuracy: 0.1875
initial loss: 0.81
initial accuracy: 0.19
Epoch 1/10
163/163 [==============================] - 91s 557ms/step - loss: 0.2483 - accuracy: 0.8955 - val_loss: 0.6603 - val_accuracy: 0.7500
…
