…
_________________________________________________________________
Layer (type)                 Output Shape              Param #   
=================================================================
input_18 (InputLayer)        [(None, 160, 160, 3)]     0         
_________________________________________________________________
tf_op_layer_strided_slice_8  [(None, 160, 160, 3)]     0         
_________________________________________________________________
tf_op_layer_BiasAdd_8 (Tenso [(None, 160, 160, 3)]     0         
_________________________________________________________________
sequential_8 (Sequential)    (None, 160, 160, 3)       0         
_________________________________________________________________
resnet50 (Functional)        (None, 5, 5, 2048)        23587712  
_________________________________________________________________
global_average_pooling2d_8 ( (None, 2048)              0         
_________________________________________________________________
dense_32 (Dense)             (None, 1024)              2098176   
_________________________________________________________________
dense_33 (Dense)             (None, 256)               262400    
_________________________________________________________________
dense_34 (Dense)             (None, 32)                8224      
_________________________________________________________________
dense_35 (Dense)             (None, 1)                 33        
=================================================================
Total params: 25,956,545
Trainable params: 2,421,953
Non-trainable params: 23,534,592
_________________________________________________________________
1/1 [==============================] - 0s 2ms/step - loss: 0.7200 - accuracy: 0.5625
initial loss: 0.72
initial accuracy: 0.56
Epoch 1/5
163/163 [==============================] - 91s 561ms/step - loss: 0.5787 - accuracy: 0.6012 - val_loss: 0.8118 - val_accuracy: 0.5000
…
