…
_________________________________________________________________
Layer (type)                 Output Shape              Param #   
=================================================================
input_30 (InputLayer)        [(None, 160, 160, 3)]     0         
_________________________________________________________________
tf_op_layer_strided_slice_14 [(None, 160, 160, 3)]     0         
_________________________________________________________________
tf_op_layer_BiasAdd_14 (Tens [(None, 160, 160, 3)]     0         
_________________________________________________________________
sequential_14 (Sequential)   (None, 160, 160, 3)       0         
_________________________________________________________________
resnet50 (Functional)        (None, 5, 5, 2048)        23587712  
_________________________________________________________________
global_average_pooling2d_14  (None, 2048)              0         
_________________________________________________________________
dense_56 (Dense)             (None, 1024)              2098176   
_________________________________________________________________
dense_57 (Dense)             (None, 256)               262400    
_________________________________________________________________
dense_58 (Dense)             (None, 32)                8224      
_________________________________________________________________
dense_59 (Dense)             (None, 1)                 33        
=================================================================
Total params: 25,956,545
Trainable params: 2,421,953
Non-trainable params: 23,534,592
_________________________________________________________________
1/1 [==============================] - 0s 2ms/step - loss: 0.9148 - accuracy: 0.5000
initial loss: 0.91
initial accuracy: 0.50
Epoch 1/5
163/163 [==============================] - 85s 521ms/step - loss: 0.2210 - accuracy: 0.9047 - val_loss: 0.5582 - val_accuracy: 0.8125
…
