…
_________________________________________________________________
Layer (type)                 Output Shape              Param #   
=================================================================
input_20 (InputLayer)        [(None, 160, 160, 3)]     0         
_________________________________________________________________
tf_op_layer_strided_slice_9  [(None, 160, 160, 3)]     0         
_________________________________________________________________
tf_op_layer_BiasAdd_9 (Tenso [(None, 160, 160, 3)]     0         
_________________________________________________________________
sequential_9 (Sequential)    (None, 160, 160, 3)       0         
_________________________________________________________________
resnet50 (Functional)        (None, 5, 5, 2048)        23587712  
_________________________________________________________________
global_average_pooling2d_9 ( (None, 2048)              0         
_________________________________________________________________
dense_36 (Dense)             (None, 1024)              2098176   
_________________________________________________________________
dense_37 (Dense)             (None, 256)               262400    
_________________________________________________________________
dense_38 (Dense)             (None, 32)                8224      
_________________________________________________________________
dense_39 (Dense)             (None, 1)                 33        
=================================================================
Total params: 25,956,545
Trainable params: 2,421,953
Non-trainable params: 23,534,592
_________________________________________________________________
1/1 [==============================] - 0s 3ms/step - loss: 0.7293 - accuracy: 0.5000
initial loss: 0.73
initial accuracy: 0.50
Epoch 1/5
163/163 [==============================] - 91s 560ms/step - loss: 0.5830 - accuracy: 0.6233 - val_loss: 0.7556 - val_accuracy: 0.5000
…
