…
_________________________________________________________________
Layer (type)                 Output Shape              Param #   
=================================================================
input_2 (InputLayer)         [(None, 160, 160, 3)]     0         
_________________________________________________________________
tf_op_layer_strided_slice (T [(None, 160, 160, 3)]     0         
_________________________________________________________________
tf_op_layer_BiasAdd (TensorF [(None, 160, 160, 3)]     0         
_________________________________________________________________
sequential (Sequential)      (None, 160, 160, 3)       0         
_________________________________________________________________
resnet50 (Functional)        (None, 5, 5, 2048)        23587712  
_________________________________________________________________
global_average_pooling2d (Gl (None, 2048)              0         
_________________________________________________________________
dense (Dense)                (None, 1024)              2098176   
_________________________________________________________________
dense_1 (Dense)              (None, 256)               262400    
_________________________________________________________________
dense_2 (Dense)              (None, 32)                8224      
_________________________________________________________________
dense_3 (Dense)              (None, 1)                 33        
=================================================================
Total params: 25,956,545
Trainable params: 2,421,953
Non-trainable params: 23,534,592
_________________________________________________________________
1/1 [==============================] - 0s 3ms/step - loss: 0.6782 - accuracy: 0.5625
initial loss: 0.68
initial accuracy: 0.56
Epoch 1/10
163/163 [==============================] - 2922s 18s/step - loss: 0.2407 - accuracy: 0.8980 - val_loss: 0.7214 - val_accuracy: 0.7500
…
