…
_________________________________________________________________
Layer (type)                 Output Shape              Param #   
=================================================================
input_22 (InputLayer)        [(None, 160, 160, 3)]     0         
_________________________________________________________________
tf_op_layer_strided_slice_10 [(None, 160, 160, 3)]     0         
_________________________________________________________________
tf_op_layer_BiasAdd_10 (Tens [(None, 160, 160, 3)]     0         
_________________________________________________________________
sequential_10 (Sequential)   (None, 160, 160, 3)       0         
_________________________________________________________________
resnet50 (Functional)        (None, 5, 5, 2048)        23587712  
_________________________________________________________________
global_average_pooling2d_10  (None, 2048)              0         
_________________________________________________________________
dense_40 (Dense)             (None, 1024)              2098176   
_________________________________________________________________
dense_41 (Dense)             (None, 256)               262400    
_________________________________________________________________
dense_42 (Dense)             (None, 32)                8224      
_________________________________________________________________
dense_43 (Dense)             (None, 1)                 33        
=================================================================
Total params: 25,956,545
Trainable params: 2,421,953
Non-trainable params: 23,534,592
_________________________________________________________________
1/1 [==============================] - 0s 3ms/step - loss: 0.6531 - accuracy: 0.6875
initial loss: 0.65
initial accuracy: 0.69
Epoch 1/5
163/163 [==============================] - 90s 554ms/step - loss: 0.5934 - accuracy: 0.5684 - val_loss: 0.8531 - val_accuracy: 0.4375
…
