…
_________________________________________________________________
Layer (type)                 Output Shape              Param #   
=================================================================
input_36 (InputLayer)        [(None, 160, 160, 3)]     0         
_________________________________________________________________
tf_op_layer_strided_slice_17 [(None, 160, 160, 3)]     0         
_________________________________________________________________
tf_op_layer_BiasAdd_17 (Tens [(None, 160, 160, 3)]     0         
_________________________________________________________________
sequential_17 (Sequential)   (None, 160, 160, 3)       0         
_________________________________________________________________
resnet50 (Functional)        (None, 5, 5, 2048)        23587712  
_________________________________________________________________
global_average_pooling2d_17  (None, 2048)              0         
_________________________________________________________________
dense_68 (Dense)             (None, 1024)              2098176   
_________________________________________________________________
dense_69 (Dense)             (None, 256)               262400    
_________________________________________________________________
dense_70 (Dense)             (None, 32)                8224      
_________________________________________________________________
dense_71 (Dense)             (None, 1)                 33        
=================================================================
Total params: 25,956,545
Trainable params: 2,421,953
Non-trainable params: 23,534,592
_________________________________________________________________
1/1 [==============================] - 0s 2ms/step - loss: 0.8955 - accuracy: 0.5000
initial loss: 0.90
initial accuracy: 0.50
Epoch 1/10
163/163 [==============================] - 90s 554ms/step - loss: 0.2105 - accuracy: 0.9101 - val_loss: 2.0417 - val_accuracy: 0.5625
…
