…
_________________________________________________________________
Layer (type)                 Output Shape              Param #   
=================================================================
input_2 (InputLayer)         [(None, 160, 160, 3)]     0         
_________________________________________________________________
tf_op_layer_strided_slice (T [(None, 160, 160, 3)]     0         
_________________________________________________________________
tf_op_layer_BiasAdd (TensorF [(None, 160, 160, 3)]     0         
_________________________________________________________________
sequential (Sequential)      (None, 160, 160, 3)       0         
_________________________________________________________________
resnet50 (Functional)        (None, 5, 5, 2048)        23587712  
_________________________________________________________________
global_average_pooling2d (Gl (None, 2048)              0         
_________________________________________________________________
dense (Dense)                (None, 1024)              2098176   
_________________________________________________________________
dense_1 (Dense)              (None, 256)               262400    
_________________________________________________________________
dense_2 (Dense)              (None, 64)                16448     
_________________________________________________________________
dense_3 (Dense)              (None, 1)                 65        
=================================================================
Total params: 25,964,801
Trainable params: 2,430,209
Non-trainable params: 23,534,592
_________________________________________________________________
1/1 [==============================] - 0s 5ms/step - loss: 0.7605 - accuracy: 0.5000
initial loss: 0.76
initial accuracy: 0.50
Epoch 1/14
163/163 [==============================] - 1550s 10s/step - loss: 0.2041 - accuracy: 0.9091 - val_loss: 1.9205 - val_accuracy: 0.5625
…
