…
_________________________________________________________________
Layer (type)                 Output Shape              Param #   
=================================================================
input_8 (InputLayer)         [(None, 160, 160, 3)]     0         
_________________________________________________________________
tf_op_layer_strided_slice_3  [(None, 160, 160, 3)]     0         
_________________________________________________________________
tf_op_layer_BiasAdd_3 (Tenso [(None, 160, 160, 3)]     0         
_________________________________________________________________
sequential_3 (Sequential)    (None, 160, 160, 3)       0         
_________________________________________________________________
resnet50 (Functional)        (None, 5, 5, 2048)        23587712  
_________________________________________________________________
global_average_pooling2d_3 ( (None, 2048)              0         
_________________________________________________________________
dense_12 (Dense)             (None, 1024)              2098176   
_________________________________________________________________
dense_13 (Dense)             (None, 256)               262400    
_________________________________________________________________
dense_14 (Dense)             (None, 32)                8224      
_________________________________________________________________
dense_15 (Dense)             (None, 1)                 33        
=================================================================
Total params: 25,956,545
Trainable params: 2,421,953
Non-trainable params: 23,534,592
_________________________________________________________________
1/1 [==============================] - 0s 6ms/step - loss: 0.8119 - accuracy: 0.5000
initial loss: 0.81
initial accuracy: 0.50
Epoch 1/15
163/163 [==============================] - 106s 653ms/step - loss: 0.2401 - accuracy: 0.8969 - val_loss: 1.4995 - val_accuracy: 0.6875
…
