…
_________________________________________________________________
Layer (type)                 Output Shape              Param #   
=================================================================
input_4 (InputLayer)         [(None, 160, 160, 3)]     0         
_________________________________________________________________
tf_op_layer_strided_slice_1  [(None, 160, 160, 3)]     0         
_________________________________________________________________
tf_op_layer_BiasAdd_1 (Tenso [(None, 160, 160, 3)]     0         
_________________________________________________________________
sequential_1 (Sequential)    (None, 160, 160, 3)       0         
_________________________________________________________________
resnet50 (Functional)        (None, 5, 5, 2048)        23587712  
_________________________________________________________________
global_average_pooling2d_1 ( (None, 2048)              0         
_________________________________________________________________
dense_4 (Dense)              (None, 1024)              2098176   
_________________________________________________________________
dense_5 (Dense)              (None, 256)               262400    
_________________________________________________________________
dense_6 (Dense)              (None, 32)                8224      
_________________________________________________________________
dense_7 (Dense)              (None, 1)                 33        
=================================================================
Total params: 25,956,545
Trainable params: 2,421,953
Non-trainable params: 23,534,592
_________________________________________________________________
1/1 [==============================] - 0s 3ms/step - loss: 0.6829 - accuracy: 0.6250
initial loss: 0.68
initial accuracy: 0.62
Epoch 1/10
163/163 [==============================] - 88s 537ms/step - loss: 0.2305 - accuracy: 0.8970 - val_loss: 1.2422 - val_accuracy: 0.7500
…
