…
_________________________________________________________________
Layer (type)                 Output Shape              Param #   
=================================================================
input_26 (InputLayer)        [(None, 160, 160, 3)]     0         
_________________________________________________________________
tf_op_layer_strided_slice_12 [(None, 160, 160, 3)]     0         
_________________________________________________________________
tf_op_layer_BiasAdd_12 (Tens [(None, 160, 160, 3)]     0         
_________________________________________________________________
sequential_12 (Sequential)   (None, 160, 160, 3)       0         
_________________________________________________________________
resnet50 (Functional)        (None, 5, 5, 2048)        23587712  
_________________________________________________________________
global_average_pooling2d_12  (None, 2048)              0         
_________________________________________________________________
dense_48 (Dense)             (None, 1024)              2098176   
_________________________________________________________________
dense_49 (Dense)             (None, 256)               262400    
_________________________________________________________________
dense_50 (Dense)             (None, 32)                8224      
_________________________________________________________________
dense_51 (Dense)             (None, 1)                 33        
=================================================================
Total params: 25,956,545
Trainable params: 2,421,953
Non-trainable params: 23,534,592
_________________________________________________________________
1/1 [==============================] - 0s 3ms/step - loss: 1.0110 - accuracy: 0.5000
initial loss: 1.01
initial accuracy: 0.50
Epoch 1/5
163/163 [==============================] - 87s 533ms/step - loss: 0.2770 - accuracy: 0.8765 - val_loss: 0.7228 - val_accuracy: 0.7500
…
