…
_________________________________________________________________
Layer (type)                 Output Shape              Param #   
=================================================================
input_28 (InputLayer)        [(None, 160, 160, 3)]     0         
_________________________________________________________________
tf_op_layer_strided_slice_13 [(None, 160, 160, 3)]     0         
_________________________________________________________________
tf_op_layer_BiasAdd_13 (Tens [(None, 160, 160, 3)]     0         
_________________________________________________________________
sequential_13 (Sequential)   (None, 160, 160, 3)       0         
_________________________________________________________________
resnet50 (Functional)        (None, 5, 5, 2048)        23587712  
_________________________________________________________________
global_average_pooling2d_13  (None, 2048)              0         
_________________________________________________________________
dense_52 (Dense)             (None, 1024)              2098176   
_________________________________________________________________
dense_53 (Dense)             (None, 256)               262400    
_________________________________________________________________
dense_54 (Dense)             (None, 32)                8224      
_________________________________________________________________
dense_55 (Dense)             (None, 1)                 33        
=================================================================
Total params: 25,956,545
Trainable params: 2,421,953
Non-trainable params: 23,534,592
_________________________________________________________________
1/1 [==============================] - 0s 3ms/step - loss: 0.6759 - accuracy: 0.5000
initial loss: 0.68
initial accuracy: 0.50
Epoch 1/5
163/163 [==============================] - 87s 531ms/step - loss: 0.1990 - accuracy: 0.9124 - val_loss: 0.8221 - val_accuracy: 0.7500
…
