…
_________________________________________________________________
Layer (type)                 Output Shape              Param #   
=================================================================
input_16 (InputLayer)        [(None, 160, 160, 3)]     0         
_________________________________________________________________
tf_op_layer_strided_slice_7  [(None, 160, 160, 3)]     0         
_________________________________________________________________
tf_op_layer_BiasAdd_7 (Tenso [(None, 160, 160, 3)]     0         
_________________________________________________________________
sequential_7 (Sequential)    (None, 160, 160, 3)       0         
_________________________________________________________________
resnet50 (Functional)        (None, 5, 5, 2048)        23587712  
_________________________________________________________________
global_average_pooling2d_7 ( (None, 2048)              0         
_________________________________________________________________
dense_28 (Dense)             (None, 1024)              2098176   
_________________________________________________________________
dense_29 (Dense)             (None, 256)               262400    
_________________________________________________________________
dense_30 (Dense)             (None, 32)                8224      
_________________________________________________________________
dense_31 (Dense)             (None, 1)                 33        
=================================================================
Total params: 25,956,545
Trainable params: 2,421,953
Non-trainable params: 23,534,592
_________________________________________________________________
1/1 [==============================] - 0s 3ms/step - loss: 0.7207 - accuracy: 0.5000
initial loss: 0.72
initial accuracy: 0.50
Epoch 1/5
163/163 [==============================] - 91s 558ms/step - loss: 0.6543 - accuracy: 0.3407 - val_loss: 0.6754 - val_accuracy: 0.6250
…
